model/model.pth (torch, 16787 bytes, 4 tensors)

linear1.weight f4 [256, 11]
000000 8f 32 2d 3e 33 af c5 bc 1b b6 80 bc 71 a0 5d 3e
       0.16913818 -0.024131393 -0.015711835 0.21643235
000010 6e 9e f9 bd 32 5f 4d be a3 4a a2 be 4c 6c 99 bc
       -0.12188421 -0.20055845 -0.31697568 -0.018728398
000020 3e 8f 82 3d e7 41 b2 be 36 a3 a6 be d1 a3 ae bd
       0.063749775 -0.34815904 -0.32546395 -0.08527339
000030 73 28 b5 bd 0d 91 b2 3d 65 02 a7 3e 37 ab 87 be
       -0.08845606 0.087190725 0.32619014 -0.26497814
000040 ac a6 0a 3e e9 22 1d 3e 1c 85 82 3e 07 74 5c be
       0.13540143 0.15345348 0.2549218 -0.21528636
000050 8b 78 6a be e7 5c a9 bc 5f 1a fe bd 35 e3 60 bd
       -0.22897546 -0.020674182 -0.12407374 -0.05490418
000060 24 ff 8e 3e 29 e4 63 3e 16 c3 16 3e b1 8d 7c be
       0.27929032 0.22255005 0.14722857 -0.24663426
000070 60 51 63 be 9a 4e c6 bd 53 16 04 3d 0e 7a 42 3c
       -0.22199011 -0.09682961 0.032247853 0.01186992
000080 8a a4 59 bd 84 1f ba 3d 90 ba 91 be 93 06 ab 3e
       -0.053135432 0.090880424 -0.28462648 0.33403453
000090 0b 37 9c bc ad e8 90 3d e3 00 45 be 32 8c 5b be
       -0.019069215 0.070756294 -0.1923862 -0.21440199
0000a0 f2 93 1b be 97 be c9 bd ec 20 45 3e da d5 85 3e
       -0.15193155 -0.09850805 0.1925084 0.26139718
0000b0 8b 10 89 bd cf 5c 1f 3e 75 2b ab 3e a5 68 9d bc
       -0.066926084 0.15562747 0.33431593 -0.019214937
0000c0 6b 08 a5 3c 09 b6 ca 3d 06 79 31 3e 40 bd 16 bc
       0.020145616 0.09898002 0.17331323 -0.009200394
0000d0 16 00 03 bc 8c 5c 80 3e d7 a2 7e be 0a 46 29 be
       -0.007995626 0.25070608 -0.24866806 -0.16530624
0000e0 d8 ed 6f 3d fc 01 6a 3e de 77 5b be ac 96 a5 3d
       0.058576435 0.2285232 -0.21432444 0.08085379
0000f0 5b 2d cb bc 74 95 88 be ee 39 57 be e5 70 d3 3d
       -0.0248019 -0.26676524 -0.21018192 0.10324267
000100 b0 1c 15 bd 5b 07 bb 3d 5a 80 a3 3d 5c f8 8e 3d
       -0.03640431 0.09132262 0.079834655 0.069809645
000110 93 c5 ff 3d 4c 81 11 3e 6a d4 99 3e 6f e1 4e 3e
       0.12488856 0.14209479 0.30044872 0.20203184
000120 da e5 20 3e d9 6b 73 be d3 1f 56 be 8f 9e 55 bd
       0.15712681 -0.2377161 -0.20910577 -0.052153166
000130 42 56 de bc a4 6f 19 3e 0d ec f6 bd 5d c9 14 3e
       -0.02714074 0.14983994 -0.12056742 0.14529939
000140 47 83 31 be ed ce bb 3c d8 83 c5 bd 6c 3d 70 3e
       -0.17335235 0.022925818 -0.09644288 0.2346093
000150 81 f4 69 3e f2 13 cc bd 39 8d a0 bd 07 0d 4b 3e
       0.22847177 -0.09964742 -0.07839436 0.19829188
000160 0e 9d 2d 3e a9 31 66 be 48 2d 3a be be e2 99 bc
       0.16954443 -0.22479881 -0.18181336 -0.018784877
000170 92 7c c1 3d 04 fe 2c bd fa c9 6c 3e 9a 43 91 be
       0.09447588 -0.042234436 0.23123923 -0.28371888
000180 ba d1 3d 3e 06 cf db bd c5 3d 94 3e 00 e0 83 b8
       0.18537036 -0.10732846 0.28953376 -6.28829e-05
000190 98 d1 9d bd a8 b8 2f 3d eb 64 97 be dd 93 0f 3c
       -0.077059925 0.04290071 -0.29569182 0.008763281
0001a0 fe d8 b4 bc a8 70 22 3e 81 f7 ae 3d 20 d5 4e be
       -0.022076126 0.15863287 0.085433014 -0.20198488
0001b0 23 f8 34 3d 77 d6 6c be 18 f8 8b 3e ce f2 08 be
       0.044181954 -0.23128687 0.27337718 -0.13373873
0001c0 a4 ef 2d 3d c6 f5 6e 3e db 2d 23 be 49 02 9e be
       0.042464867 0.23335943 -0.15935461 -0.30861118
0001d0 b1 e6 1a be 39 38 95 3e 12 40 21 bd 03 98 e2 bd
       -0.15127064 0.29144457 -0.039367743 -0.1106415
0001e0 74 0c 1e be 2e 5b e9 3d 6e cc 88 3d 07 79 a6 3e
       -0.15434438 0.11394344 0.06679617 0.32514212
0001f0 d5 bf 64 bd 5a b9 8b 3e 8b ea 89 3e 14 05 11 be
       -0.055847008 0.2728985 0.26936755 -0.14162093
000200 27 10 90 be ba d3 b2 bd d9 2a 2f be c3 a1 85 3e
       -0.28137323 -0.0873179 -0.17106189 0.26099977
000210 10 23 7b be d0 92 5f be 36 a7 cb 3d 05 a1 50 3d
       -0.24525094 -0.21833348 0.09944002 0.05093481
000220 0e 0c 77 be d6 16 3d bd 09 2c 36 3e b7 88 a4 3e
       -0.24125692 -0.046164356 0.17790236 0.32135555
000230 92 13 b2 3d de fb 19 bc ee 64 98 3e 9c 6b d7 bd
       0.08695139 -0.009398429 0.29764503 -0.10518572
000240 0c ba a9 3e 5a 9d 85 be 3e 40 f3 3d a1 db 2e 3e
       0.33149755 -0.26096612 0.118774876 0.1707597
000250 90 40 8c 3e d9 b0 11 3e b4 01 1f be 08 f4 2c 3e
       0.27393007 0.14227618 -0.15527993 0.16889966
000260 04 7c 4c be 76 3c b9 3d dc 2a 59 3e 78 ec 98 be
       -0.19969183 0.09044735 0.21207756 -0.2986791
000270 50 59 24 bd 7c b2 7f be 1e 4d e8 bd 99 96 66 be
       -0.040124238 -0.2497043 -0.11342834 -0.22518386
000280 12 df e9 bd e8 ae 22 be 5e c3 f3 bd 6f 99 10 3e
       -0.114195004 -0.15887034 -0.11902498 0.1412103
000290 a0 ce 02 3e 8b 65 44 bd 5b c4 70 3e 8e d1 d1 3d
       0.12774134 -0.0479484 0.23512404 0.102450475
0002a0 a8 67 3f be 8e 20 9e 3c 54 70 4c 3d 45 ae 13 3d
       -0.18691885 0.019302633 0.049911812 0.03605487
0002b0 99 50 52 3e 7f 51 ec 3d 54 d6 c8 bd dc 57 7a be
       0.20538558 0.11538982 -0.09806505 -0.24447578
0002c0 b2 ff 63 be f4 6b 22 3e 99 10 8b 3d da 4e e3 3d
       -0.22265509 0.15861493 0.06790275 0.11099024
0002d0 b1 f7 8b be 57 81 99 3d bd 51 8d be 9e e7 c0 bd
       -0.2733741 0.07495373 -0.27601424 -0.094191775
0002e0 18 5f 27 3d 98 19 a9 be 4b a6 02 3e a2 13 3e 3e
       0.040862173 -0.3302734 0.12758748 0.18562177
0002f0 6a 13 c1 3e ef 32 5b be 48 60 75 bd 6b c3 b9 3e
       0.37710124 -0.21406148 -0.059906274 0.36281905
000300 94 06 24 be ae cd b3 bd 4b 5c ab bd 07 75 a1 3d
       -0.16018134 -0.08779465 -0.08367213 0.07883649
000310 39 5f 3e 3c ad 2c 4a 3e 87 da 99 3d 16 aa 2b bc
       0.011619383 0.19743605 0.07512384 -0.010477563
000320 55 33 88 3e 28 b9 d9 bd 80 73 86 be 34 6f 95 be
       0.26601663 -0.10631019 -0.26259995 -0.29186404
000330 3a ef 14 be dd c4 d6 3c a5 89 00 be 47 dd 21 3e
       -0.14544383 0.026216919 -0.12552507 0.15807067
000340 76 97 48 be f7 b2 ac 3e 2a 0a 39 bc 3c 2f 6c be
       -0.19589028 0.3373029 -0.011293927 -0.23064893
000350 a2 bd a2 3e eb cc 5b be c1 a0 2a 3d 46 6b 12 3e
       0.31785303 -0.21464889 0.041657213 0.14298734
000360 54 b8 38 3e 11 03 23 bc 68 fe d7 3d 25 f8 f7 bd
       0.18039066 -0.009949462 0.10546571 -0.12107877
000370 27 97 9d bd bf 74 7f be 1b fa be 3d 0e 01 44 3e
       -0.07694846 -0.24946879 0.093250476 0.19141027
000380 45 f0 8a be ac 4a cc bd 36 87 0b be 1c 8f 90 3d
       -0.27136436 -0.0997518 -0.13625798 0.07058546
000390 67 aa 14 3e 00 4c 43 3e fb 42 a6 be a7 d8 21 3d
       0.14518128 0.1907196 -0.32472977 0.039513256
0003a0 93 f1 d7 3c a5 d0 cc bd ce 3d 91 3e 69 ad e9 3d
       0.026360309 -0.10000733 0.28367466 0.114100285
0003b0 90 b2 02 be 75 82 1f 3e fb 54 91 3e b0 cd d8 3a
       -0.12763429 0.15577109 0.28385147 0.0016540792
0003c0 31 8f 4b 3d e0 85 8f bc e5 2a 20 3d 22 8d e9 bd
       0.049697105 -0.017519891 0.039103407 -0.11403872
0003d0 60 05 47 bd 93 df ee bc b6 ff 8c be d7 5f 04 be
       -0.04858911 -0.029159343 -0.27538842 -0.12927185
0003e0 b0 d2 69 be 0a 6d fc bd 28 57 77 3e 89 bb 03 be
       -0.22834277 -0.12325485 0.24154341 -0.12864508
0003f0 15 a5 60 3c 1c 3c 41 3e 4c 7e d2 bc 06 cc be 3e
       0.013711234 0.18870586 -0.025694989 0.37265033

linear1.bias f4 [256]
000000 e9 9b d1 3c e6 3d 20 3d 01 ee 42 bd 63 8d 76 be
       0.025587039 0.03912153 -0.04759026 -0.24077372
000010 ef 23 6a 3e 74 46 8b be 22 0f b5 3e 4f 38 1c 3e
       0.2286527 -0.2720219 0.35363108 0.15255855
000020 cc b4 b2 3d 4c 16 72 be f1 31 bc bd e2 09 58 bd
       0.087258905 -0.23641318 -0.09189213 -0.0527438
000030 5a a5 9b 3e 09 d1 8d 3d cb 9e ae 3d 02 c6 44 be
       0.3039959 0.06924636 0.08526381 -0.19216159
000040 21 a5 0a 3e 5e 53 19 3e 07 dc 81 3e bd 20 a8 3e
       0.13539554 0.14973208 0.2536318 0.32837477
000050 b7 a9 12 3e b5 6e 78 3e bc af a3 be 00 aa 91 be
       0.14322554 0.24260981 -0.31970012 -0.28450012
000060 48 a0 16 3d 1b 6c 5d 3d 8b e7 28 be e8 18 7d 3d
       0.03677395 0.054058176 -0.16494577 0.06179133
000070 f1 d6 a1 bc 9d 99 38 3d 55 f2 f9 bd ef 5a c1 3d
       -0.019755812 0.045068372 -0.12204424 0.09441172
000080 7a 89 58 be bc aa 61 be 98 c1 40 be df 22 4a be
       -0.21146193 -0.22037786 -0.1882385 -0.19739865
000090 c9 be 13 3e ed 0f 03 3e 6d 65 9f 3e ed 3a ae bd
       0.14428248 0.12799044 0.3113207 -0.08507333
0000a0 29 4f c0 3d 49 24 09 bd e8 1e 95 be d5 30 83 bd
       0.093900986 -0.03348187 -0.29125142 -0.06405798
0000b0 1a 05 25 3d f0 e1 34 3e b9 f1 91 3d cf ae 45 3e
       0.04028807 0.17664313 0.07126183 0.19304965
0000c0 6d 05 7e 3d c1 97 74 be a0 fa 08 bd b9 e1 77 3e
       0.062016893 -0.23886015 -0.03344214 0.242072
0000d0 57 fc fd bd be 79 9f 3e 80 6e 7f be ad 0c 93 3e
       -0.12401646 0.3114757 -0.24944496 0.28720608
0000e0 8b 0a 90 3d 06 d7 1e be 11 14 92 3e 52 4d 8b 3d
       0.07033261 -0.15511712 0.28530934 0.06801857
0000f0 1d 81 2f 3d f3 dc 16 be 0f 3f 42 3d 3b 2c fc 3d
       0.04284774 -0.14732723 0.04742342 0.12313124
000100 98 16 8e 3e 7b b6 1a 3d 8f 1d f3 bd e0 59 3f 3e
       0.27751613 0.037771683 -0.11870872 0.18686628
000110 41 91 07 3d 36 1c af bd af 8f 92 3d 3e 9c 70 be
       0.03309751 -0.08550303 0.07156312 -0.23497102
000120 bf 04 fc bc 78 77 bb bc 62 60 9b be 88 3c 7e be
       -0.030763982 -0.022884116 -0.30346972 -0.24827778
000130 a0 72 a3 bd 97 6c 53 be 31 fd b1 3e 68 08 0e bd
       -0.07980847 -0.20646892 0.34763482 -0.034675986
000140 17 02 0b 3d 12 37 9c be c0 3a 9e 3e 8f fa 83 be
       0.03393754 -0.30510765 0.30904198 -0.257771
000150 f6 e3 8d 3d 1a 1f 82 3d a3 55 90 3c 68 cd 7d 3d
       0.06928246 0.063535884 0.01761896 0.06196347
000160 96 97 d0 3d 22 be 6f 3e 2b ef 8b be 7e a4 79 be
       0.10185163 0.23412374 -0.27330908 -0.24379155
000170 7a 8f b9 3e 95 f0 99 3e df 19 11 3d 4a 5a 61 3e
       0.36242276 0.30066362 0.035425063 0.22007099
000180 28 3f 5c be 03 ff 93 be 1c 8a 3c 3e 80 8b be bd
       -0.21508467 -0.28905496 0.1841206 -0.09303951
000190 a9 8b 97 3e f7 44 af bd 08 65 82 3e 27 7a 8c be
       0.2959874 -0.08558076 0.25467706 -0.27436945
0001a0 51 7d 95 3e 94 be 5a 3e b4 20 52 3e f5 91 78 3d
       0.2919717 0.21361762 0.20520288 0.06068607
0001b0 75 ea 21 3e 0c 24 4f 3e 36 46 76 be c8 49 8f 3e
       0.15812095 0.20228595 -0.24050221 0.27985978
0001c0 8b f1 79 3d 01 61 41 3e ae b1 ac 3e 71 83 e2 3c
       0.06102137 0.1888466 0.3372931 0.027650567
0001d0 5a 5d ad 3d 23 17 ad 3e 81 75 b4 bd 28 1e 26 be
       0.08465071 0.33806714 -0.088114746 -0.16222441
0001e0 db 2d 66 be 4c b7 a9 3e 61 00 ba 3e fa 0d ae 3d
       -0.2247843 0.33147657 0.36328414 0.084987596
0001f0 45 88 05 3d f0 3c 8b bd ad 5d c2 3e 17 71 4b 3e
       0.03260066 -0.06798732 0.37962094 0.19867359
000200 bf 38 4c 3e 12 92 99 3d 81 aa 6e 3e 61 2b 26 be
       0.19943522 0.07498564 0.2330723 -0.16227485
000210 03 e2 82 3e 7b e0 92 be e2 4d a0 bd 85 9d 60 bd
       0.25563058 -0.2868689 -0.07827355 -0.054837722
000220 0c 58 59 3e 99 19 1d 3d 1f 81 4e be cd 75 69 3d
       0.21224993 0.03835449 -0.20166443 0.05699711
000230 66 33 78 3e 24 de 6d 3d f7 11 ba 3c 7f b4 af 3e
       0.24238357 0.058073178 0.022713644 0.34317395
000240 1b 71 9a 3e 5f 26 74 be 82 d2 37 be 90 d9 14 3e
       0.30164418 -0.23842762 -0.17951396 0.14536119
000250 46 6f 93 be b7 5d 6a 3e ac 4a 5d bd bb 26 5a be
       -0.28795832 0.22887312 -0.05402629 -0.21303837
000260 81 b8 68 3e b6 ac 91 bd 99 13 af 3e f2 2a 5c be
       0.22726633 -0.0711302 0.3419464 -0.21500757
000270 bd ae 18 3c 85 e2 17 be a0 5a 60 bd 3b 9c 4c be
       0.009319005 -0.14832504 -0.054773927 -0.19981472
000280 9a 8e d6 3d 9b ca ed 3c f1 96 cd 3e 47 d0 7c be
       0.10476418 0.029027274 0.40154222 -0.24688827
000290 c2 fa 68 3e a1 16 48 be e9 da 7b be 45 ec db bd
       0.22751907 -0.19539882 -0.24595226 -0.10738424
0002a0 5b 84 ef 3b 5a a4 f2 3d 93 7f 86 be d6 58 4f be
       0.007309479 0.11847754 -0.26269206 -0.20248732
0002b0 11 5d fb 3d 7b 3d 49 3e 01 01 90 3e ac e1 fc 3d
       0.122736104 0.19652359 0.28125766 0.12347731
0002c0 90 63 35 3e da f8 08 be 81 ac 90 3d bf 17 99 be
       0.17713761 -0.1337618 0.070641525 -0.2990093
0002d0 b4 41 46 be e6 bf 97 be 2f 8f 42 3e b4 99 8d be
       -0.19361001 -0.29638594 0.18999933 -0.2765633
0002e0 bd c0 8f 3c 2c 08 82 3e 35 db d6 bd 26 9a c0 3d
       0.01754796 0.2539686 -0.10491029 0.094044015
0002f0 d3 14 8a bd 81 bb c9 3d aa 26 b4 be 6e d8 f2 3d
       -0.06742253 0.09850217 -0.35185748 0.11857687
000300 32 67 1e 3e ee e8 75 3d be a5 95 3d fd 92 85 3e
       0.15469053 0.060036592 0.073070034 0.26088706
000310 58 47 cd 3e 55 30 b2 3e 5f e7 2a 3e f5 8f 8e 3e
       0.40093493 0.348025 0.16689824 0.27844205
000320 c5 b9 84 be ce 16 a2 3e 8c bb a6 3c 5c bf cc 3c
       -0.2592298 0.31658024 0.020353101 0.024993591
000330 8a f0 c2 3d 39 5b 73 3e 62 60 b9 3e 42 d9 9e 3e
       0.095185354 0.23765267 0.36206347 0.3102513
000340 3a 30 91 be b1 12 11 3e 15 e4 8c bd 52 37 a5 3e
       -0.28357106 0.14167286 -0.06879441 0.3226877
000350 6b 47 8f 3e 03 1e 45 3e 1c 25 7a bd 57 45 85 3e
       0.27984175 0.1924973 -0.061070547 0.26029465
000360 80 10 c1 3d 39 49 2c 3e cb a0 5e 3e aa 73 52 bd
       0.09426975 0.16824807 0.21741025 -0.051379837
000370 68 1e 8e 3d fa e7 f1 3d 5d b9 ad bd 3f 7b 0c 3e
       0.06939393 0.11811824 -0.08482621 0.1371889
000380 e1 d4 15 3c e5 e0 c2 3c d6 84 3a be df 8f 3d 3d
       0.009144993 0.023788879 -0.18214735 0.046279784
000390 21 0e a4 3e 1a c4 b8 3e 8d fa 9e 3d e0 f1 c7 3e
       0.3204203 0.36087114 0.077626325 0.39051723
0003a0 2c 41 6f 3e bf ec bd 3e 3a f8 60 ba fe 9a 07 be
       0.23364705 0.37094685 -0.00085819105 -0.13242719
0003b0 ec 17 17 3e 59 d8 c7 3d 7d d8 a7 3c 3d 77 2e 3d
       0.14755219 0.09758062 0.020488972 0.042594183
0003c0 d4 6a 78 be a6 f6 38 be 06 c2 e9 3d 0c 81 63 bd
       -0.24259502 -0.18062839 0.1141396 -0.05554299
0003d0 5b f9 3e bd af 3e 22 3e 0f 6a 83 be 43 b8 02 be
       -0.046624523 0.15844224 -0.25666854 -0.12765603
0003e0 1a d9 61 3e 73 73 37 3d 5f 1b 29 be 76 90 90 bb
       0.22055474 0.044787835 -0.16514347 -0.0044117523
0003f0 e9 c2 ac 3d f5 15 4c be 82 8d 0e 3e b8 ce 0a 3e
       0.08435614 -0.19930251 0.13921168 0.1355542

linear2.weight f4 [3, 256]
000000 a3 00 82 3d 4d 28 31 bc 85 38 0e bd b2 e8 5c bd
       0.06347778 -0.010812831 -0.03472187 -0.053932853
000010 b4 61 ff ba 14 c6 7d 3c 48 42 43 bd d6 d0 80 bd
       -0.0019484074 0.01548912 -0.047670633 -0.06289832
000020 22 2d e8 bd 7f c1 b7 3c f0 fa 3c bc f7 fa 06 bb
       -0.113367334 0.022431133 -0.011534438 -0.0020596364
000030 54 7b 86 bc 47 4b 3e bd cf b9 5b bc 76 7e f3 3a
       -0.01641623 -0.04645851 -0.013410999 0.0018577117
000040 fe 88 a6 bc c0 13 d5 bd cc b8 07 3d 0f 79 f8 bd
       -0.020328995 -0.10404158 0.03313522 -0.12132465
000050 49 ec 05 bd f2 ae 85 3c c2 60 33 3d b6 bc 60 bd
       -0.032696042 0.016318772 0.043793447 -0.05486747
000060 fe 06 ca 3b 48 29 7b 3d 90 4b 79 3c e3 28 16 bc
       0.0061653843 0.061318666 0.015215769 -0.009165022
000070 54 a0 31 bd 8c 3e 9a 3c 82 96 7e ba 5f 96 d1 bc
       -0.04336579 0.018828653 -0.00097117585 -0.025584398
000080 45 fc 83 bd ff e5 a2 bd 45 38 08 bd 15 3b 09 3c
       -0.06444601 -0.079540245 -0.033256788 0.008375903
000090 a5 ec 23 3d 80 08 b6 3a da 3f a5 3c 5a cf 8d 3d
       0.040020604 0.0013888031 0.020172048 0.06924315
0000a0 77 40 b1 bd d3 fa 89 bd c7 95 7c 3b 52 11 f0 ba
       -0.08654874 -0.06737294 0.0038541423 -0.0018315709
0000b0 e3 7a 55 bc 2f 26 7b bd af aa 21 3c c7 db bd bd
       -0.013029787 -0.06131571 0.009867354 -0.09270435
0000c0 24 e0 d3 bc 68 41 a6 bd b9 24 ae bd d3 f6 bf bd
       -0.025863715 -0.08117944 -0.08503098 -0.0937325
0000d0 30 02 90 3d fe 15 05 bd 6c 7f 98 3c e1 7c 3c 3d
       0.07031667 -0.032491677 0.018615447 0.04601753
0000e0 47 2f 36 bd d7 05 06 3d 55 69 5a bd 01 84 0e bb
       -0.04447868 0.032720413 -0.05332311 -0.002174616
0000f0 af 32 fa bc 04 69 b4 bb dc 97 c2 bd fe d5 79 bc
       -0.030541746 -0.005505683 -0.09501621 -0.015248774
000100 11 10 6f bd cc 98 ad bc 22 f3 90 bd a3 e9 7a 3c
       -0.05836493 -0.021191023 -0.07077624 0.015314492
000110 b8 d9 b2 3c 15 b3 99 3d 48 02 2b 3d 85 77 90 bd
       0.021832332 0.0750486 0.041750222 -0.070540465
000120 81 ef 8e bb 22 b2 a1 3c 1a f8 88 bb 99 23 4b bd
       -0.004362047 0.01973826 -0.0041799666 -0.049594495
000130 88 0b c2 bd 4a 5b aa bc 02 f8 7c bd a1 6f b4 3b
       -0.09474856 -0.020795483 -0.061759956 0.0055064713
000140 b7 ab 0e 3d a9 e3 e6 3c 9a 82 d0 bd 9b 93 52 bd
       0.03483173 0.028184729 -0.1018116 -0.0514103
000150 3f 20 17 bd b4 88 0e 3d 16 2a 56 3c 94 3c e3 bd
       -0.036895987 0.03479834 0.0130715575 -0.11095539
000160 b7 d8 5d 3a 1b 8f 0f 3c 36 31 7e 3c 2f b1 de bb
       0.0008462774 0.008762146 0.0155146625 -0.0067960243
000170 26 7d dd bb fb 16 03 be fa 2c 69 bd 7f 1b ec bc
       -0.0067593036 -0.12801735 -0.05692766 -0.028821705
000180 1d e9 0b bd bf b1 96 bc 71 5f 5f 3d a2 bb 5c 3d
       -0.03415786 -0.018395303 0.05453438 0.053889878
000190 2f d8 4c 3c 5b 27 5f 3d 09 4b 1c bd 22 f4 79 3d
       0.012502714 0.05448089 -0.038157497 0.06102384
0001a0 dc e1 6e bd df 11 92 bd dd c3 1e 3c df 82 1e bc
       -0.058320865 -0.07132315 0.009690252 -0.009674757
0001b0 51 bc d0 3c ed 3a cf bd 1d be 89 bb 78 cc 7c 3a
       0.025480421 -0.10118661 -0.0042035715 0.00096435053
0001c0 84 a1 8c 3b 0a 80 82 bd 9d 01 4c bd 27 9c 49 3d
       0.004291715 -0.06372078 -0.049806226 0.049221184
0001d0 25 73 1a bc 7d e2 1e bd fe 43 84 bc 15 af bd bc
       -0.009426867 -0.038790215 -0.016145702 -0.023154775
0001e0 b8 e4 6e 3d 59 0c 8b 39 64 ff ca bc 7c a9 09 bd
       0.058323592 0.00026521346 -0.024779983 -0.0336089
0001f0 b1 bc ad bd 88 96 0c be 54 bb 6d bd cc 7e 89 3d
       -0.08483256 -0.13729298 -0.05803998 0.06713638
000200 31 ac 7a bd c5 67 af bd 0a 64 b4 3d e1 21 8d bd
       -0.06119937 -0.08564714 0.088081434 -0.068912275
000210 34 f4 30 bd c7 30 0d 3d c6 66 0a 3d 0a 03 c6 3c
       -0.04320164 0.034470346 0.03378942 0.024171371
000220 dd f3 7e bd 5b b4 54 bd 1a 7a 00 3c c1 d3 6e 3c
       -0.062244285 -0.051929813 0.007841611 0.014576853
000230 89 c6 3b 3c c5 1a c2 3c 9c 1a da bd c0 33 a0 bc
       0.011460909 0.023694405 -0.106496066 -0.019555926
000240 27 da b0 bd f1 87 95 3c 25 e9 c9 3c 75 e9 8e bd
       -0.08635359 0.018253298 0.024647305 -0.06978122
000250 57 32 76 bd a9 17 9a bd c0 29 91 bc d6 c7 d8 bb
       -0.0601066 -0.07524044 -0.017720103 -0.006615619
000260 63 21 99 3d ca ba bc bd ec dd 2a bd 69 66 3c bc
       0.07477071 -0.09215315 -0.041715547 -0.011499026
000270 85 fa 33 bd 1b c1 31 3d 13 90 7b bd e2 48 10 bc
       -0.043940086 0.04339705 -0.061416697 -0.008806439
000280 3b 4c 41 bd 74 6a c0 bd f9 b9 d7 bd f0 e8 a0 bb
       -0.04719184 -0.09395304 -0.10533518 -0.004910581
000290 d1 ac 2c 3c 93 a7 93 bd 3e 73 60 3b 75 e8 bf bd
       0.0105392495 -0.072096966 0.0034248377 -0.093705095
0002a0 87 0f db 3b 2f 86 df bd 34 ad 2f bd 38 07 15 bd
       0.0066852006 -0.10914265 -0.04288979 -0.036383837
0002b0 0e 2e c0 bd b8 72 11 bd ab 94 9a bd eb 07 ba bd
       -0.09383784 -0.035509795 -0.075478874 -0.090835415
0002c0 f5 e2 b7 3b d4 f6 75 bd 78 ae 6c bd 00 bd b0 3b
       0.005611772 -0.060049847 -0.057783574 0.0053936243
0002d0 ab 6b 80 bd bf 65 f4 3b 4e 5b 94 bc 40 9f f0 bd
       -0.06270536 0.007458418 -0.018109944 -0.117491245
0002e0 7b ab 0f bb 46 e8 e3 bd ef f5 51 bd 52 62 2f bd
       -0.0021922279 -0.11128287 -0.05125993 -0.042818375
0002f0 3a 72 43 3d 5d 00 37 bc bf 89 9f 3b a2 63 60 3c
       0.047716357 -0.01116952 0.0048687155 0.013695629
000300 1b 1f e8 bc 25 bc 5f 3d b3 02 d9 bd ac db 0f bd
       -0.028335145 0.054622788 -0.10596218 -0.035121605
000310 41 63 4f bd bc c1 cc 3c 49 cb 91 bd 30 fb 9c b8
       -0.050631765 0.024994723 -0.07118852 -7.485447e-05
000320 fe 79 0f 3d a0 99 02 be 9e 60 7a bd 2d 15 f0 3d
       0.03502845 -0.12753916 -0.061127298 0.11722789
000330 b6 e4 c5 bc 25 db 18 bd 77 f0 61 bd 41 9b 70 3b
       -0.02415691 -0.037318368 -0.055160966 0.0036713632
000340 06 f8 56 bb cc 6f c3 bd 25 db ac bc 3a 84 b9 bc
       -0.0032801642 -0.09542808 -0.02110059 -0.022646058
000350 a4 2d 49 bd 52 f5 9f bd 9c 02 8f bd 2c bf dc bc
       -0.049115792 -0.07810463 -0.069829196 -0.026946627
000360 fc 8a 52 bd c5 6c d5 bd 9e 23 27 bd bf 17 c9 ba
       -0.051402077 -0.10421137 -0.04080545 -0.001534216
000370 72 13 a3 bd 36 61 81 bd f2 5e b5 3d 47 eb 22 bd
       -0.07962693 -0.0631737 0.08856 -0.03977516
000380 cb c6 43 bd d2 b0 e6 bd 8d 59 40 bd 4d 28 17 bd
       -0.047797006 -0.112641945 -0.046960402 -0.03690367
000390 86 d7 1b bd ec 9a 30 bc 3f 77 5b bd 39 d5 cd bd
       -0.038047336 -0.010779124 -0.05358052 -0.100504346
0003a0 f4 f4 83 bc b2 28 41 bc e6 fb 0a bd 59 0e c8 3a
       -0.016108014 -0.011789488 -0.033931635 0.0015263065
0003b0 05 73 3a bd 1f e0 c7 bd 45 34 8e bd e1 a3 f8 bd
       -0.045519847 -0.097595446 -0.06943563 -0.121406324
0003c0 44 b5 61 bd 4a da 43 bd 2f ca b7 bd 11 c1 59 bc
       -0.05510451 -0.0478156 -0.0897411 -0.0132906595
0003d0 dc 6c 90 3b 81 4c 18 bd f3 98 e1 bc bd ed 64 bd
       0.0044075083 -0.037182335 -0.027538752 -0.055890787
0003e0 01 00 1e bd 56 a9 fd bc 33 7c 74 bc 39 ec bc bc
       -0.038574222 -0.030964535 -0.0149221895 -0.023061858
0003f0 76 69 b3 bc c1 d6 a8 3d 6a 21 2c bc 0f 7e db bd
       -0.021900874 0.08244086 -0.010506013 -0.10717403

linear2.bias f4 [3]
000000 35 f8 f1 bd 0e a4 81 bd 38 8f 90 bd
       -0.1181492 -0.06330119 -0.07058567
