model/model.pth (torch, 16787 bytes, 4 tensors)

linear1.weight f4 [256, 11]
00000000: 0aa0 7ebe bb02 2e3f a184 9cbe d7ee a7bd
00000010: 6426 a03e 71d5 a43e 6e5c f13e 637c 1dbf
00000020: 2e43 37be 068a f23d e636 4c3d bd8f 08be
00000030: 5caf bc3b 7274 123e 6eef 913e 3437 d8bd
00000040: 6e1d 0c3f 0b93 1bbe dcb4 0c3e cb5b 2bbf
00000050: 9e01 fabc 915d 0cbf 0357 0f3e 7634 82be
00000060: 2089 d1bb 47e3 e2bd 1fca 7ebd 5e52 f83e
00000070: ba80 2cbf ed75 48bf ae98 39bf b878 0f3f
00000080: ec7e 0dbf 3ef8 a3be c5e1 3bbe 840f ab3e
00000090: f5a7 e7bc f45c 313e 4843 ba3d f98d 553e
000000a0: d621 4e3c 68b6 1abe fff2 e5bd e8be 81be
000000b0: 78c2 3f3e 4f75 2cbf 972c e63e 6e9f 913d
000000c0: 5880 1bbd 2cea b3be 4bc4 293e 2b1e 243e
000000d0: 81fa 45be 0558 343c cdb5 67bd fd88 393e
000000e0: 279e b5be 68e2 ff3e 627a 6cbe a10a 3fbe
000000f0: ad74 9fbe 7ff9 dbbd 568e ae3e 1035 92bc
00000100: 99c8 383e 57cd b4bd 411c d8bd f84c 0dbf
00000110: 5132 803e f845 b4bd aa80 883e 5950 01bf
00000120: ad8c 8a3d 7d03 0ebf a08e 53be 38df 15be
00000130: fb36 c3bc 78fb e53e a1d2 1e3f 6963 bebe
00000140: e37a 653c 54b6 173e c0f6 2c3d 013e 54be
00000150: 94f3 813e b2eb e43d 8a1f 663e f2f9 d43e
00000160: f62c dfbe 1718 5f3e 7746 733e 3596 3b3e
00000170: 04a5 863d 1569 623d 859e 873d 1836 15be
00000180: a0af 02be 5895 7bbe a4f8 71be 7649 c33e
00000190: 4146 9ebc 66e5 d83e ee42 98bd 05f5 cfbd
000001a0: 5f37 1c3e bf95 2ebe d8de e43e 1a45 8f3e
000001b0: b78f 46bd d57d 883e b0b2 04bd 04ff 803c
000001c0: 2f32 843d 0183 9d3e 47dd 93be 7c05 323e
000001d0: 75a8 c3be 3a79 02bf bd19 c7be 9703 07bf
000001e0: 9b8d 163e 9653 903e 0e4f febe d698 ce3d
000001f0: a9bf 323c 2c4e 123e 072c 34bd 9461 81bd
00000200: 3158 683d cec1 93bd 1717 4e3e 57fc 603e
00000210: c3b4 d53e c8d7 6c3d cbba 55bf eb7e c4be
00000220: e4e3 973e 18a4 df3d 2d5a 50be 2699 ba3e
00000230: 9690 36be 6f83 d5bc a65d 5e3e 8527 8e3e
00000240: b177 32bd 6bbf 453e 7010 61bd 3b12 c6be
00000250: 9cd6 5abc 67ce 633d c95e 093d 5f2c 6b3e
00000260: 2656 153d 54e0 553c 3964 c63d e353 fbbb
00000270: 53d6 bdbe 011c e93d ff84 c9bd aa6b 1cbd
00000280: aa20 44bc 9f7f 98be a17d 333e 5f61 d53c
00000290: a3e3 ca3d 33c6 61be efe7 38be 075e f7bb
000002a0: da73 9cbe 61f9 79bd 3ad5 1a3f 00ac 753e
000002b0: 84c3 0b3f 37ed 8c3e c760 afbe 798a dcbc
000002c0: 8fde 453e c83c 4e3e 1a2a a03e d479 d2be
000002d0: 42bc 153e f39d 9cbe ecb1 8a3e 61ca 223f
000002e0: adb5 853e d6e2 1e3f 0785 9e3d abe6 003f
000002f0: 8fed 953e 0da2 a83d 82fb 513e aa4f 80be
00000300: e6ce fbbe b274 32be 68b7 76be d2a8 d23e
00000310: a350 023f b8cf 633e 5541 2dbe 9188 a93e
00000320: 2992 36be bead c13e 1a40 96be 1d70 ce3e
00000330: 9acf a93e 1964 5abd 067f 17bf 2805 06bc
00000340: 60eb 9f3d c3ad 9bbe 08ad 563f a0b0 e1be
00000350: 59c6 033e a137 8bbe 17ba 99bd 90f2 193e
00000360: ac61 c43d a6b7 4dbe 9819 9fbe c8b7 053e
00000370: 1c1c c83d 4082 e43d 6e94 353e f40c d0bb
00000380: 452d de3d 78cf d3be bf0e da3e 75f5 353e
00000390: 1841 b1be 26f0 ba3e 4e29 b6be 7d97 10be
000003a0: 854f 94be 045f 1c3f 77f2 e23e 91d7 ebbe
000003b0: e80b d53e 01d0 57be 993c 95bd f056 ccbc
000003c0: 86d8 143e 157a 26bf 55e1 f73e f640 70bf
000003d0: f2d1 4e3d ca1b bf3e f43d aabe c6c9 8e3d
000003e0: 2977 303e 896a 82be 8222 f43e cc70 a33e
000003f0: 3fe3 87be ff3f 52bd b8e7 3ebe 60cf 233c
-0.24865738 0.67972916 -0.30569938 -0.08199852 0.3127929 0.32194093 0.4714083 -0.61517924
-0.17896721 0.11842732 0.049857043 -0.13336082 0.005758209 0.14302233 0.28502983 -0.10557404
0.54732406 -0.15192811 0.13740867 -0.6693694 -0.03051835 -0.5483027 0.13998036 -0.2543065
-0.0063945204 -0.11078506 -0.062204476 0.4850034 -0.6738392 -0.7830494 -0.72498596 0.5604358
-0.5527179 -0.3202533 -0.18347843 0.33410275 -0.02827833 0.17320615 0.09094864 0.2085494
0.012581309 -0.15108645 -0.112279885 -0.25340962 0.18726528 -0.673665 0.44955894 0.07110487
-0.037964195 -0.35139596 0.16578786 0.16027133 -0.19333841 0.011007314 -0.056569863 0.18118663
-0.35472223 0.49977422 -0.2309356 -0.18656398 -0.31143704 -0.10740947 0.3409297 -0.017847568
0.18045272 -0.08828228 -0.10552264 -0.5519557 0.25038388 -0.08802408 0.26660663 -0.50513226
0.06765113 -0.5547407 -0.20659876 -0.14635932 -0.023829928 0.44918418 0.62040144 -0.3718522
0.014006349 0.14815646 0.042227507 -0.20726778 0.25381148 0.11177768 0.22472969 0.41596943
-0.4358899 0.21786533 0.23757349 0.18319018 0.06574443 0.055275995 0.06622032 -0.14571416
-0.12762308 -0.24568689 -0.23630005 0.38141984 -0.019320609 0.42362517 -0.07434641 -0.10154156
0.15255497 -0.17049311 0.44701266 0.27982408 -0.0484769 0.26658502 -0.032396972 0.0157466
0.06454884 0.3076401 -0.2887976 0.17384905 -0.3821446 -0.5096623 -0.38886824 -0.5273985
0.14702456 0.2818877 -0.4966969 0.10087745 0.010909953 0.14287633 -0.0439873 -0.0631744
0.05672473 -0.072147 0.20125996 0.2197126 0.41739473 0.057822973 -0.8348815 -0.3837808
0.29666054 0.1091997 -0.203469 0.36444968 -0.17828593 -0.026063649 0.21715412 0.27764526
-0.043571178 0.19311301 -0.054947317 -0.38685784 -0.013356831 0.055616762 0.03353766 0.22966145
0.03645911 0.013053972 0.09687085 -0.007669912 -0.3707758 0.113822944 -0.0983982 -0.038188614
-0.011970678 -0.29784867 0.17528392 0.026047407 0.099066995 -0.22048263 -0.18057226 -0.0075490507
-0.30557138 -0.061028842 0.6048161 0.23991394 0.5459521 0.2752473 -0.34253523 -0.026921498
0.1932318 0.20140374 0.3128212 -0.41108572 0.14622596 -0.30589256 0.2708887 0.63590056
0.2611517 0.62064874 0.07740217 0.5035197 0.29282805 0.08234034 0.20506099 -0.2506078
-0.49181288 -0.17427328 -0.24093401 0.41144425 0.5090429 0.22247207 -0.16919453 0.33112004
-0.17829193 0.37827867 -0.2934578 0.4031991 0.331662 -0.053318117 -0.591782 -0.00817994
0.07808566 -0.30406007 0.83857775 -0.44080067 0.12868632 -0.2719088 -0.07506197 0.15033937
0.09588942 -0.20089588 -0.31074214 0.13058388 0.097709864 0.11157656 0.17732403 -0.0063492004
0.10848478 -0.41369224 0.42589375 0.17769416 -0.34619975 0.36511344 -0.35578388 -0.14120288
-0.2896692 0.6108248 0.4432561 -0.46062902 0.41610646 -0.21075441 -0.07286949 -0.024943799
0.14535722 -0.6503003 0.48414102 -0.9384912 0.05049319 0.3732589 -0.3325039 0.06972079
0.17232956 -0.25471905 0.47682577 0.31921995 -0.26540563 -0.051330563 -0.18643081 0.0099981725

linear1.bias f4 [256]
00000000: 5b22 813e dbd7 d7bc 5d18 eebc a710 213e
00000010: caa8 373d d9f4 edbd 8585 903e 570b 89be
00000020: 7ff0 9a3e cee4 4dbe c711 073e 8255 c1be
00000030: aac6 a9bd 3028 96be 98b0 c4be 8c6c 86be
00000040: 9d21 b8be 803e 18be d719 953e 571d 8f3d
00000050: e315 14be a964 663d 27f7 12be cf29 acbe
00000060: 8815 83bd 3196 3bbe 195b 8dbe 95ff 34bd
00000070: 541b 4cbe 8979 99be 466e 5dbe 4fb7 c8be
00000080: 46ef 7e3d 617b 03be b5a7 db3c 9f98 9f3d
00000090: 48ee 2c3b 7b90 27bd c259 97be 94f5 6ebe
000000a0: 9122 d0bd 63a8 adbe feae e13d 58c6 51be
000000b0: 600a 493e 3ac9 babe 6541 63be 0305 66be
000000c0: 2711 88be c94d 68be 0fa6 223e 9cc2 2abe
000000d0: 3369 8bbe fb00 a7be ece8 263b 5fdd c2be
000000e0: 3b8a 97bd 6b3c bcbe 49a2 06bf a422 a1ba
000000f0: 34e9 813e 99c3 653e dfce 5cbe 065e 8b3e
00000100: 8c29 aebd 5b11 4bbe e4ef 60be 9500 86be
00000110: 6fd2 fabd e4ce a2be 1d7e 8ebe 7086 fe3d
00000120: 74aa ecbd fca7 52be 1012 403e feca 54be
00000130: 5723 3dbe 2a1d 7ebe e37e 41be 1ab5 a83d
00000140: 0578 74bc c54c 863d a4b6 83be 5c52 2c3d
00000150: 82e7 9f3e 46de 923d 64e6 34be 2920 eabc
00000160: 215d 633e 2763 8dbd 5afa f6bd 8a8b 7ebe
00000170: c781 8dbd 45ae a13e 4811 c7bd 41ac 8ebe
00000180: 4005 88bd ec9f 133e 0e67 32be 0bb6 b3be
00000190: f42d 5abe 3c47 0bbe 5549 aa3e f68f 46be
000001a0: f94e 74be 847f 553e d902 64bd 5ec4 b33c
000001b0: 7563 c43c 0d8e 88be 1a08 d7be f847 3e3e
000001c0: 5892 2abe 78c5 ce3d 633b 13be a680 1e3d
000001d0: 02aa f3bc c419 aebe 35a2 b13d 2dae adbe
000001e0: c0ef 60bb ecba a0be f307 813f 88fd 553d
000001f0: 7cdd 7abc 4031 64be e671 47bb 3b65 70bd
00000200: be05 eebe 2eac 75be fe07 bc3d 444a a03f
00000210: 5bc5 32bd 979e ed3d 3a74 febd 92a9 5cbe
00000220: bb08 2ebe 481c 893e 06db 443e 48a7 c8bd
00000230: 413f b43c 6602 5bbe 6785 d0be 206b 71be
00000240: 1e11 c03e 49a7 0abe 1e0f 02be 8c6c 3abe
00000250: d2d3 22be 9d1e 94be 5ced a2be 45bc 1abe
00000260: 8c3f d4be 72e9 a6be 56db 00bd 716e d3bd
00000270: 2f97 abbe 6d12 ec3e 3f9a 3abe 3ed4 b2bd
00000280: b3a6 473e 3a11 6dbe ee31 b0be 7de6 31be
00000290: 94f0 7ebd e21e 83be a23c 70be 9487 91bd
000002a0: 9ae2 a0be 1c24 5cbe 7548 acbe a0e2 4fbd
000002b0: bcda a4bc 169a 91be bd44 b23c 0c9f 8d3d
000002c0: fc35 68be 8f49 14be 0ea0 133e 2c6e 69be
000002d0: e064 08bf cd0c 2dbe 7acd e63e c102 f63d
000002e0: b397 e4bd b593 0f3d 2623 82be 0e44 d03d
000002f0: 2684 ab3d 3ab0 763e 2024 01bd d08d 3fbe
00000300: bf34 8dbe 0c97 ccbd 6515 bcbe cd3e 36bd
00000310: 76d4 2abe f715 f0bd 2ec9 6b3f 7f48 82bd
00000320: 889a 253f 796b 9fbd 2fd4 7bbe 4a3c b73c
00000330: ca98 9cbe 38c5 91bd f353 82bc fdb9 b0be
00000340: 5408 813d c810 80be 2deb 43be a925 a8be
00000350: b042 64bd 5a56 2e3e 1fb4 893c 6dff 8d3e
00000360: a773 edbd 4181 d1bc cdde 07be 5dbd 713e
00000370: bef3 15be f453 80ba fae8 5cbe 8975 afbe
00000380: d027 e63c 182e 063e 6b0c 123f 527c afbe
00000390: 4c4c c1be c76b 803d 8a54 96be c17c 81bb
000003a0: 2854 edbe 8228 febd 97f7 b53e a8ba 54be
000003b0: aff1 10bd d1f1 023f 6562 c1bd a9e9 59be
000003c0: 1aed 3f3e dce8 963e 94d5 c7bd 4943 75bb
000003d0: 0671 c1be 9290 3f3e 4aa4 a6be 2a26 373d
000003e0: 8a32 7bbe f669 ccbc c231 f53e 5c43 8cbe
000003f0: 958b 97be 4847 163e e273 373d 453c 55be
0.25221524 -0.026348045 -0.029064352 0.15729009 0.044838704 -0.116189666 0.28226867 -0.26766464
0.3026161 -0.20106813 0.13190375 -0.3776055 -0.08289845 -0.29327536 -0.3841598 -0.2625469
-0.35963145 -0.14867592 0.29121277 0.06988018 -0.14461474 0.05624834 -0.14352094 -0.33625647
-0.06400591 -0.18319012 -0.27608564 -0.044189055 -0.199323 -0.29975536 -0.21624097 -0.39202353
0.062239908 -0.12840034 0.026813367 0.07792782 0.0026387144 -0.04090927 -0.29560667 -0.23335868
-0.10162843 -0.3391753 0.11019705 -0.20485818 0.19632864 -0.3648165 -0.22192915 -0.2246285
-0.26575586 -0.22685923 0.15883659 -0.166758 -0.27228698 -0.32617936 0.0025468422 -0.38059518
-0.07399412 -0.36764845 -0.5259138 -0.0012293649 0.25373232 0.22437896 -0.2156329 0.27220172
-0.08504018 -0.1983084 -0.21966511 -0.2617232 -0.12247168 -0.3179847 -0.27830592 0.12427986
-0.11555949 -0.20571893 0.1875689 -0.2078056 -0.18470512 -0.24815813 -0.1889606 0.082376674
-0.014921193 0.065576114 -0.2572528 0.04207073 0.31231314 0.071713015 -0.17666012 -0.028579788
0.22203495 -0.069036774 -0.120594695 -0.24857917 -0.06909519 0.3157827 -0.09720093 -0.27865794
-0.06641626 0.14416474 -0.17422125 -0.35099825 -0.21306592 -0.13601393 0.33259073 -0.19390854
-0.2385825 0.20849425 -0.05566678 0.021944221 0.023973206 -0.26670876 -0.41998369 0.18582141
-0.16657388 0.10096258 -0.14378123 0.038696907 -0.029744152 -0.34004033 0.08673517 -0.33921948
-0.003432259 -0.3139261 1.0080551 0.05224374 -0.015311595 -0.22284412 -0.003043288 -0.05869029
-0.46488756 -0.23991463 0.09181212 1.2522664 -0.043645244 0.11602514 -0.12424512 -0.21549061
-0.16995518 0.2677939 0.19224176 -0.09797531 0.022002818 -0.21387634 -0.40726778 -0.23576021
0.3751306 -0.13540377 -0.12701079 -0.1820547 -0.15901116 -0.28929606 -0.31821716 -0.15110882
-0.41454732 -0.3259998 -0.031459175 -0.103237994 -0.3351378 0.46107808 -0.18222903 -0.08731888
0.19497184 -0.23151103 -0.34413093 -0.1737308 -0.062241152 -0.256095 -0.2346063 -0.071059376
-0.31422883 -0.2149815 -0.3364903 -0.050753236 -0.020123832 -0.2843787 0.021761293 0.069151014
-0.22676843 -0.14481185 0.14416525 -0.22795933 -0.53278923 -0.16899414 0.4507864 0.12012244
-0.11161747 0.035052974 -0.2541744 0.101692304 0.08374815 0.24090663 -0.031528592 -0.18706441
-0.27579305 -0.099897474 -0.36735073 -0.044493485 -0.1668261 -0.117229395 0.9210385 -0.06361484
0.6468892 -0.07784171 -0.2459266 0.022367615 -0.3058532 -0.071176946 -0.01590917 -0.34516898
0.063004166 -0.25012803 -0.19132681 -0.32841232 -0.05572766 0.17025128 0.016809521 0.27733937
-0.115943246 -0.025574328 -0.13268586 0.23607393 -0.14643762 -0.0009790645 -0.21573249 -0.3426936
0.028095156 0.13103521 0.570502 -0.34274536 -0.37753522 0.06270557 -0.29361373 -0.0039516394
-0.4635327 -0.1241007 0.3554046 -0.20774329 -0.035386737 0.5115023 -0.094425954 -0.2128054
0.18742791 0.29474533 -0.09757534 -0.0037424138 -0.37781543 0.18707493 -0.32547218 0.04471413
-0.24530998 -0.02495287 0.47889525 -0.2739514 -0.2959868 0.14675629 0.04478825 -0.20823772

linear2.weight f4 [3, 256]
00000000: bb62 cc3e 587d 853e 5057 163f 698f 573d
00000010: a688 e03d ecb8 71bc f0f2 453e b70d 5abe
00000020: bb09 9d3d d1f9 c7bd 5a4d f2be 2e57 b53b
00000030: c9d9 81be 37b4 2e3c ebe9 8e3c db96 03bf
00000040: b2dd 95be 158c bfbe 0148 b23e 49ba 6f3e
00000050: 025e a5be 3292 ab3e d7b2 3fbe 5c62 2dbc
00000060: 38bb 0abe ff8b ddbe b158 bfbe 8b02 2bbe
00000070: c127 203e 7a69 313c 68b9 91bc 43a2 03bd
00000080: 2c65 d1be baec 41be 0e7d bb3c c1e1 dabe
00000090: df1e d63e d92c 2e3d 0979 65be 65d7 1dbe
000000a0: 4018 fb3b bf29 e5bc 4ebc 173f 810a 0d3d
000000b0: c47d c53e 3b45 c9be 384e 9a3c 8787 e0be
000000c0: 9ae7 60be 5490 7fbb caaa b93e 1e4d 61bd
000000d0: bd34 453d 1947 21bd d7b0 34bd 767b 673c
000000e0: ab26 46be 49ee c4bd b208 46bd 5c2b 033d
000000f0: 60b8 603e 25d9 653e 92e5 b8be c413 dc3e
00000100: 634c 453e 4566 03be a856 68be 40eb fd3a
00000110: 960e fabd 77fa efbb e2bf f9be 5947 533d
00000120: 3335 253e 770c c03e 7e5b 9dbe 7386 b4bd
00000130: f825 1d3d 7093 d1bc 8e5c eabe 57b4 cb3c
00000140: 1aab bf3d 53a5 0cbc 9815 233c 2154 6e3e
00000150: b44a e73e cb1e e3bc fdf3 8d3a eac0 dcbc
00000160: b4eb ce3e 70fc 9dbc 36a0 f03d 579d fbbd
00000170: 9730 4cbf 2e0f 3c3e e50f ab3d e7a3 2e3b
00000180: 6b1a 71bd 7f9b 803e a9a9 68bd e124 643c
00000190: eb99 103d 3a33 033e 0919 5d3e d48a 56be
000001a0: 5242 9a3e 0ea7 bdbe ae8b f0be 7f0c 33be
000001b0: 2cb2 b93e 35eb 343d 178e 66bd 4ecd b73d
000001c0: f229 a3be 0dd9 b33e c271 3d3e f214 1dbe
000001d0: 697c a73b ff29 68bd d6c6 1bbd 5ec0 c3bd
000001e0: 2d4b 1b3d de89 48bc d407 c43e 17d4 8a3d
000001f0: 23cb 83be 79d2 833a 5236 bb3d 8c40 c0bd
00000200: f92a 8c3d 3ab4 c63b 49a2 043f 4f8a bd3e
00000210: 5a2c 12be e03f 7b3d fefa aebe 9d56 8e3d
00000220: a1e2 933e 56bb 183e d957 e13e 6dea 5e3c
00000230: e9e3 713e 8509 41bd 31c9 54bb 7fca 63bd
00000240: 5297 eb3e 3837 1cbd e31d 1dbc 3a04 35be
00000250: f7c5 7bbd c8a2 a1bb f43a 45bd 68cf 233e
00000260: c6ba a7bc 878e ae3c b510 6f3d f22f b23c
00000270: ee64 20be a033 443e 88b0 b93c b364 70bd
00000280: 46bf 0b3f 6eb2 2ebd 04b3 16bd 14aa cebc
00000290: d45e c93c 1b45 56bc c41f 9e3c 1d9a bebe
000002a0: 8990 78be 7b57 bfbe e733 25be cf2d 273e
000002b0: 7d94 c83e 9db5 cebd a8d5 5cbf 1231 11bf
000002c0: 4934 b03e 50eb d2be 6f74 46bc f1b4 fbbd
000002d0: e7e1 d93b 14f7 92be 5219 183e f8cc 443d
000002e0: 4330 c7be c926 723e 2820 e43c c364 c73e
000002f0: 3eef e73c edb1 073e 9f52 8c3c 9479 3bbd
00000300: ef16 6bbd dc2b 9abd df42 52be f7e4 dcbe
00000310: 366b 013d 83e5 eb3b 6fa8 023f de95 153f
00000320: ad9b 063f 262f 8dbe dd73 3ebe ad2c 99be
00000330: 9593 aabd 19c4 2dbd 5295 903d cc56 0b3e
00000340: ce34 65be 6e92 24be 575e 95be 0a01 aabe
00000350: 48ba 123b ac8f 3a3e 54d5 3e3e 9e65 533e
00000360: 5e5b 88bd ebbd d6be 6b94 f3bb b84d e53e
00000370: b966 88be dc5e 00be 57ed eebd d504 27be
00000380: 84fe 2d3c 96c0 263e 4657 6c3e adfc bc3c
00000390: 9513 f7bd 4228 453e 4098 0a3d 90be cb3d
000003a0: 98b5 873c 4e56 a3be 434f 8b3e 8ea1 8fbb
000003b0: cf07 03be 6ae9 d83e bffe 7bbd 626c febd
000003c0: c207 403e 8e04 c93e 6345 593d b85f 5abe
000003d0: 2676 aebc 3f27 57bd 418a 8f3b 8dfb 033d
000003e0: d710 39be 8348 1a3e 7502 583e e12a 71be
000003f0: 4692 01bf f651 5e3c 726a 1ebf d066 13bc
0.39919075 0.26072192 0.5872698 0.052627 0.109635636 -0.0147535615 0.19330955 -0.21294294
0.076678716 -0.097644456 -0.4732464 0.0055340743 -0.2536147 0.010663084 0.017445525 -0.5140206
-0.29270703 -0.37411562 0.3482056 0.23410906 -0.32298285 0.33509976 -0.18720566 -0.010582533
-0.13547981 -0.4327087 -0.37372354 -0.16700189 0.15640165 0.01082837 -0.017788604 -0.032137167
-0.408975 -0.1893796 0.02288678 -0.42750362 0.41820428 0.04252324 -0.22409452 -0.15414198
0.007662803 -0.027974008 0.59271705 0.034433845 0.38572514 -0.3931063 0.018836126 -0.438534
-0.21963349 -0.0038995938 0.36263114 -0.055005185 0.048146 -0.039374445 -0.04411396 0.0141285565
-0.19350688 -0.09615762 -0.048348136 0.032023773 0.21945333 0.22446115 -0.36112648 0.4298383
0.1926742 -0.12831981 -0.22689307 0.0019372478 -0.12209813 -0.007323559 -0.48779207 0.051581714
0.16133575 0.3750951 -0.30733865 -0.08814707 0.038366288 -0.025582999 -0.4577374 0.024866266
0.09358807 -0.008584338 0.009953879 0.2327428 0.4517418 -0.027724644 0.001083016 -0.026947457
0.40414202 -0.01928541 0.11749308 -0.122858696 -0.7976164 0.18365166 0.08352641 0.0026647986
-0.058863085 0.25118634 -0.056802426 0.013924808 0.035303038 0.1281251 0.21591581 -0.20951396
0.30128723 -0.37041515 -0.46981567 -0.17485236 0.36268747 0.044169623 -0.05628785 0.08974706
-0.3186794 0.35126534 0.18500426 -0.15340021 0.0051112664 -0.056680676 -0.03803142 -0.095581755
0.03791349 -0.012239901 0.38287222 0.06778734 -0.2574092 0.0010057233 0.0914122 -0.09387311
0.06844134 0.006063965 0.5181013 0.37019584 -0.14274731 0.061340213 -0.34175867 0.06950114
0.28883842 0.14915213 0.44012335 0.013605696 0.23622097 -0.04712822 -0.0032468552 -0.055613037
0.46013886 -0.0381386 -0.009589645 -0.17677394 -0.06146809 -0.004932735 -0.048151925 0.15997088
-0.020474803 0.021308197 0.058365542 0.021751378 -0.15663502 0.19160318 0.022667184 -0.058689784
0.54588735 -0.042650633 -0.036791816 -0.025227584 0.02458135 -0.013077999 0.019302256 -0.37226954
-0.24273886 -0.3737143 -0.1613308 0.16326068 0.39175788 -0.10093234 -0.86263514 -0.567155
0.3441489 -0.41195154 -0.012112721 -0.12290371 0.006649244 -0.2870413 0.14853409 0.048047036
-0.38904008 0.23647608 0.027847365 0.38944063 0.028312322 0.13251467 0.01712924 -0.045770243
-0.057394918 -0.07527897 -0.20533322 -0.43143436 0.031596385 0.007198991 0.5103826 0.58431804
0.5258129 -0.27575034 -0.18598886 -0.29916897 -0.0832893 -0.04242334 0.070597306 0.13607329
-0.22383425 -0.16071483 -0.29173538 -0.33203918 0.0022388864 0.18218869 0.18636066 0.20644233
-0.06658052 -0.4194177 -0.0074334643 0.44785857 -0.2664087 -0.12536186 -0.11666363 -0.16310437
0.010619763 0.16284403 0.23080167 0.023069704 -0.12064282 0.19253638 0.033836603 0.09948456
0.016566083 -0.31901783 0.2720891 -0.0043832725 -0.12795947 0.4236558 -0.06152224 -0.12423016
0.1875296 0.39261287 0.053044688 -0.21325576 -0.021296572 -0.052527662 0.004380495 0.03222232
-0.1807283 0.15066724 0.21094687 -0.23551513 -0.5061382 0.013569346 -0.6188117 -0.00899668

linear2.bias f4 [3]
00000000: 5902 973e c73b 6cbc 3b51 7f3d
0.2949398 -0.014418549 0.062333327
