model/model.pth (torch, 16787 bytes, 4 tensors)

linear1.weight f4 [256, 11]
0	0x3f0a994b	0.54140157
1	0xbe9201af	-0.2851691
2	0xbe559ecb	-0.20861356
3	0xbe6bab72	-0.2301462
4	0xbeaa0b5e	-0.33211797
5	0x3e1fce44	0.15606028
6	0x3defe2cd	0.11713181
7	0x3db1f42a	0.08689149
8	0x3df6060d	0.12012873
9	0xbece1a0b	-0.40254244
10	0xbebe97da	-0.3722523
11	0xbead8690	-0.33891726
12	0xbf4e6a0e	-0.80630577
13	0x3da33793	0.07969584
14	0x3ecf16e8	0.40447164
15	0xbedb8f3f	-0.42882726
16	0xbec753f0	-0.38931227
17	0xbee98991	-0.45612767
18	0xbe1dbca1	-0.15403987
19	0x3e145128	0.14484084
20	0x3edde0ca	0.43335563
21	0xbe5857f7	-0.21127306
22	0x3e86080f	0.26178023
23	0x3e542879	0.20718564
24	0xbf0b7b6a	-0.5448519
25	0xbe0e8af6	-0.13920197
26	0x3e1e1188	0.15436375
27	0x3d9de269	0.077092
28	0x3d145d44	0.036221758
29	0x3d25ccfd	0.040478695
30	0xbe96537e	-0.29360574
31	0x3e7d5b50	0.24741864
32	0x3e055988	0.13022435
33	0x3ef28998	0.473706
34	0xbd37d118	-0.04487714
35	0x3e2acc35	0.16679461
36	0x3e216414	0.15760833
37	0xbea0358e	-0.3129086
38	0x3e632f7e	0.22186086
39	0x3e9d67f1	0.30743363
40	0xbdf26ae6	-0.118367955
41	0x3e8103fe	0.25198358
42	0xbd0eb8b3	-0.03484411
43	0xbe9b587e	-0.30340952
44	0xbe782c88	-0.24235737
45	0xbe85e93d	-0.2615451
46	0x3ea66f3c	0.3250674
47	0x3e63309c	0.22186512
48	0x3d78a216	0.060701452
49	0x3e695bc1	0.22788908
50	0xbee6e0b5	-0.45093313
51	0x3dbdf588	0.09275347
52	0x3e02be11	0.12767817
53	0xbe0a9c61	-0.13536216
54	0xbf508380	-0.81450653
55	0xbdab5627	-0.08366042
56	0xbf2f7577	-0.6853861
57	0xbef3dd72	-0.47629887
58	0xbe9c0f6e	-0.30480522
59	0x3cf20318	0.02954249
60	0x3e8bffd2	0.27343613
61	0xbecd995b	-0.40156063
62	0xbe47e90f	-0.19522499
63	0xbe9bd2b7	-0.304342
64	0x3e9616ba	0.29314214
65	0xbebadf8f	-0.36498687
66	0xbe1e586f	-0.15463422
67	0xbf14def0	-0.58152676
68	0x3ec1ff0f	0.37889907
69	0xbe5337d7	-0.2062677
70	0xbe802bac	-0.2503332
71	0xbe1ee32f	-0.15516351
72	0xbea96a27	-0.330888
73	0xbe3c2124	-0.18372017
74	0xbe0776cc	-0.13228911
75	0xbd4cdec0	-0.05001712
76	0xbe72dd5d	-0.23717256
77	0x3e746f8e	0.2387068
78	0x3e7ffb38	0.24998176
79	0xbeb21934	-0.34784853
80	0xbec4d370	-0.38442564
81	0x3e7d9aca	0.24766079
82	0x3e538c49	0.20658983
83	0xbecdbe4e	-0.40184253
84	0x3e3926c1	0.1808119
85	0xbec7c947	-0.3902075
86	0xbe8def27	-0.2772152
87	0xbe93a967	-0.2884018
88	0xbc90f014	-0.017692603
89	0xbd21031b	-0.039309602
90	0xbed2ee83	-0.41197595
91	0x3d879f65	0.06622199
92	0xbe1e4942	-0.15457633
93	0xbf08917e	-0.53347003
94	0xbe28e1d6	-0.164924
95	0xbe419a84	-0.189066
96	0xbdd0c8dd	-0.10194562
97	0x3e8d1110	0.2755208
98	0xbd392850	-0.04520446
99	0xbec45784	-0.3834802
100	0x3e0bcefd	0.13653179
101	0x3e3b4d30	0.18291163
102	0xbefaede1	-0.49009612
103	0xbef72223	-0.48268232
104	0x3ba51a9e	0.0050385734
105	0x3e61fdd9	0.22069491
106	0xbe827939	-0.2548311
107	0xbebf3002	-0.37341315
108	0x3ec45226	0.38343924
109	0x3ed1cbdc	0.40975845
110	0xbe44d186	-0.19220552
111	0xbc1540c0	-0.009109676
112	0xbe5da7ba	-0.21646014
113	0xbe68d78c	-0.22738475
114	0xbda7103c	-0.08157393
115	0x3d6cf063	0.05784644
116	0xbe858c19	-0.2608345
117	0x3c9afb10	0.018918544
118	0x3e6390d7	0.22223221
119	0xbe180b97	-0.14848171
120	0xbcdec585	-0.027193794
121	0x3e0e68ec	0.13907212
122	0x3d7ed0fe	0.06221103
123	0x3b1bfaac	0.0023800535
124	0xbd257bc1	-0.040401224
125	0x3c4d4898	0.012529515
126	0xbe7ca3ee	-0.24671909
127	0xbdb5b7df	-0.08872961
128	0x3b31643a	0.0027067796
129	0x3c587ef9	0.013213866
130	0x3e2bff0f	0.16796516
131	0x3d6936cf	0.056937035
132	0x3f154078	0.58301497
133	0x3f117f27	0.56834644
134	0x3a0b6e80	0.0005318895
135	0xbe111a7d	-0.1417026
136	0x3da26a57	0.07930439
137	0x3cbd3aa4	0.023099251
138	0xbe6efa25	-0.2333761
139	0x3e9c1fdf	0.30493066
140	0xbb36878b	-0.0027851786
141	0x3e744b98	0.23856962
142	0x3e7b9f55	0.24572499
143	0x3e961698	0.29314113
144	0xbe2c9d74	-0.16856939
145	0x3e948bb9	0.2901285
146	0xbcf6e4b0	-0.030138344
147	0xbe235530	-0.15950465
148	0xbdef5dfd	-0.11687849
149	0xbef153aa	-0.47134143
150	0x3d20a0b2	0.03921575
151	0x3e2395fb	0.15975182
152	0xbeb051b3	-0.34437332
153	0x3e59ca36	0.21268544
154	0xbea5a698	-0.32353663
155	0xbd65fda0	-0.05615008
156	0x3ee9cd07	0.45664236
157	0xbee45f5f	-0.44604012
158	0xbeb549f8	-0.35407996
159	0xbdefca8f	-0.11708557
160	0x3e90cbd4	0.2828051
161	0xbe6143ca	-0.21998516
162	0xbece7493	-0.40323314
163	0xbde8d35c	-0.113684386
164	0x3eab9f0f	0.3351979
165	0x3dc69733	0.09696808
166	0x3f0ac40a	0.5420538
167	0xbf6d3eea	-0.92674124
168	0x3d5a2f43	0.05326773
169	0xbe92da94	-0.28682387
170	0x3e65a432	0.22425917
171	0x3be0439c	0.006843997
172	0xbe6da10d	-0.23205967
173	0xbdaf7561	-0.0856731
174	0xbe9aa345	-0.3020269
175	0xbdf8fbf8	-0.12157434
176	0x3de7816c	0.11303982
177	0xbdb32ac3	-0.087483905
178	0x3eb70af3	0.3575054
179	0x3b6abde2	0.0035818745
180	0xbe91c0dc	-0.28467453
181	0xbec6976d	-0.38787404
182	0xbe0f64cb	-0.14003293
183	0xbc88d697	-0.016703887
184	0x3e81f8d0	0.2538514
185	0x3e9d4719	0.30718306
186	0x3e37752f	0.17915796
187	0xbe1d5e75	-0.15368064
188	0xbe8bb7a7	-0.27288553
189	0xbf6f1640	-0.93393326
190	0xbf062c5a	-0.52411425
191	0x3dbfd0da	0.09366007
192	0x3f102df3	0.5632011
193	0xbf21abcc	-0.63152766
194	0xbe07876b	-0.13235252
195	0xbeff85a1	-0.49906638
196	0x3ec729d0	0.38899088
197	0xbf4eecd7	-0.8083014
198	0xbea8cd70	-0.32969236
199	0x3d291acf	0.041285332
200	0xbe817691	-0.2528577
201	0xbe6dffc9	-0.23242106
202	0xbd2dd21a	-0.042436697
203	0x3c88f98a	0.016720552
204	0xbdb220f2	-0.0869769
205	0xbc96af88	-0.018394247
206	0x3c0a9860	0.008459181
207	0xbe953bed	-0.29147282
208	0xbd89cd76	-0.06728642
209	0xbe28e57e	-0.16493794
210	0x3cc9d0ce	0.024635699
211	0x3e4a4a92	0.19755009
212	0xbd942833	-0.0723423
213	0xbd965dcb	-0.07342108
214	0xbe584d05	-0.2112313
215	0xbd083a81	-0.03325892
216	0xbdaa4a5a	-0.08314963
217	0x3c96c254	0.01840321
218	0xbceaaa45	-0.028645644
219	0xbd9b906e	-0.07595907
220	0xbe8ec8c6	-0.27887553
221	0x3f02085f	0.50794023
222	0xbf12c32a	-0.57329047
223	0x3e8ee89b	0.2791184
224	0x3ea9c611	0.33158925
225	0xbe9e5a8f	-0.30928466
226	0xbe99d4be	-0.30045122
227	0x3e5cd321	0.21564914
228	0x3d34b0e0	0.044113994
229	0xbed45699	-0.4147232
230	0xbebdda59	-0.3708065
231	0x3debf7f6	0.11521904
232	0xbd0e0a2b	-0.034677666
233	0xbf232a11	-0.63736063
234	0xbe884898	-0.26617885
235	0x3eaf2158	0.34205127
236	0xbf02fd42	-0.5116769
237	0xbe062144	-0.13098627
238	0x3eb5cea5	0.3550922
239	0xbe5f8f99	-0.21832122
240	0x3ef7da78	0.48408866
241	0x3ea73c5e	0.32663244
242	0x3e42f5ab	0.19039027
243	0xbe704120	-0.23462343
244	0xbdf6f299	-0.120579906
245	0xbd95cb17	-0.07314127
246	0x3ec3f5f0	0.38273573
247	0xbd26d0d0	-0.040726483
248	0x3f02e841	0.5113564
249	0xbef28996	-0.47370595
250	0xbe5be23c	-0.2147302
251	0x3ec16ff2	0.3778072
252	0xbd930ed4	-0.071805626
253	0xbe383fd6	-0.17993101
254	0x3df5f674	0.12009898
255	0xbda838e2	-0.082139745

linear1.bias f4 [256]
0	0x3e0389ca	0.12845531
1	0xbe7acd7f	-0.24492453
2	0xbe956638	-0.2917955
3	0xbdb2e80d	-0.087356664
4	0x3f0ed360	0.5579128
5	0x3d4bcdf2	0.04975695
6	0xbdc21a46	-0.094776675
7	0xbe36fd13	-0.17869978
8	0x3bcfbf79	0.006339964
9	0x3da15a99	0.07878608
10	0xbea66d39	-0.32505205
11	0xbecf1657	-0.4044673
12	0xbe175526	-0.14778575
13	0xbd8899cb	-0.06669959
14	0xbd6a0932	-0.057137676
15	0x3f023938	0.5086856
16	0xbe12062c	-0.14260167
17	0x3e40c649	0.1882564
18	0xbd97bd5a	-0.07409163
19	0xbe42851f	-0.18996094
20	0xbe283ee0	-0.16430235
21	0xbdbe038f	-0.092780225
22	0xbe9a7e70	-0.3017459
23	0xbdcbc896	-0.09950368
24	0xbeb6c7d9	-0.35699347
25	0x3cd0def6	0.025496941
26	0xbe8cb956	-0.2748515
27	0x3ee46d31	0.44614556
28	0x3f015031	0.5051299
29	0xbdb25154	-0.08706918
30	0xbedd7e6e	-0.4326052
31	0xbe6d92b9	-0.23200502
32	0xbe18667e	-0.14882848
33	0xbb814ad1	-0.0039456864
34	0xbe66d5c3	-0.22542481
35	0x3de8b3fa	0.11362453
36	0xbdae9eb7	-0.08526366
37	0xbe83de95	-0.25755754
38	0x3d49d647	0.049276616
39	0x3e528f24	0.20562416
40	0xbec4fa78	-0.38472342
41	0xbdfcf134	-0.12350693
42	0x3d984865	0.07435683
43	0xbe452695	-0.19252999
44	0xbc976eaa	-0.018485386
45	0x3d9c6ff8	0.07638544
46	0xbded46a8	-0.11585742
47	0x3d3dc448	0.046329767
48	0xbeab275d	-0.3342847
49	0x3d08bb9c	0.033382043
50	0xbea1cdf3	-0.3160244
51	0x3dbd12f2	0.09232129
52	0xbe98921b	-0.2979897
53	0x3e8e8328	0.2783444
54	0xbd3c7b20	-0.04601586
55	0x3dc95de8	0.09832364
56	0xbe783d9f	-0.24242257
57	0xbe900436	-0.28128213
58	0xbe4a0798	-0.1972946
59	0xbd9eaf98	-0.077483356
60	0xbea1eecb	-0.31627497
61	0x3c4427a1	0.011972339
62	0x3ecabdc9	0.3959792
63	0x3c738c86	0.014865046
64	0xbdd80f28	-0.10549766
65	0xbef65771	-0.48113587
66	0x3e620ac4	0.2207442
67	0xbe3abb95	-0.1823562
68	0xbe951dd0	-0.29124308
69	0xbe57cdbc	-0.21074575
70	0xbde99aa2	-0.11406447
71	0xbea62688	-0.32451272
72	0xbeaac505	-0.3335344
73	0xbd807130	-0.06271589
74	0xbd86dc96	-0.06585042
75	0x3e059b01	0.1304741
76	0xbe91c45e	-0.2847013
77	0xbd8e9fa2	-0.06964041
78	0xbef4fb92	-0.47848183
79	0xbd5731f6	-0.05253788
80	0xbeb77d13	-0.35837612
81	0xbea7829b	-0.32716832
82	0x3ef530d5	0.47888818
83	0xbe8763b9	-0.2644327
84	0x3f5137c3	0.8172571
85	0x3e8de7f9	0.27716044
86	0xbc5c61ed	-0.013451082
87	0xbea93ff6	-0.3305661
88	0x3d2c3c72	0.042049833
89	0x3eb5c1af	0.3549933
90	0xbeb7b21f	-0.35878083
91	0xbe827ce9	-0.25485924
92	0x3f10c208	0.5654607
93	0xbe864ebf	-0.26231954
94	0xbc9d50af	-0.019203512
95	0xbe8886d3	-0.26665363
96	0x3f01de15	0.50729495
97	0xbe1dbd48	-0.15404236
98	0xbe2380d9	-0.1596712
99	0xbd00602f	-0.031341728
100	0xbd6e591a	-0.058190443
101	0xbea7c8f0	-0.3277049
102	0xbb9a0485	-0.004700246
103	0x3ed304f4	0.41214716
104	0xbea3d882	-0.3200112
105	0x3d2eb38a	0.04265169
106	0xbe2b04ac	-0.16701001
107	0x3d81d51e	0.06339477
108	0xbeb17ea2	-0.34666926
109	0x3e328ada	0.1743578
110	0xbe9e7d1b	-0.30954823
111	0x3e0e88fb	0.13919441
112	0xbe961889	-0.29315594
113	0xbe3fe2f5	-0.18738921
114	0xbe2e5df1	-0.17028023
115	0xbd7e14ac	-0.062031433
116	0x3e83e57f	0.2576103
117	0xbe9bb8d3	-0.30414447
118	0xbdef26fd	-0.11677358
119	0x3e48c499	0.19606246
120	0x3ec4f7a4	0.38470185
121	0xbd20854b	-0.039189618
122	0x3e9e0f9b	0.3087128
123	0x3d84b368	0.064795315
124	0x3de82021	0.11334253
125	0xbe464fdd	-0.19366403
126	0xbe17c58f	-0.14821456
127	0xbe8de738	-0.27715468
128	0xbe108682	-0.1411381
129	0xbe07f273	-0.13276081
130	0xbd8d6fd8	-0.06906098
131	0xbebb974f	-0.36638877
132	0xbe5ead93	-0.21745901
133	0x3e1968e6	0.14981422
134	0xbd01a5f6	-0.031652413
135	0x3e96c475	0.2944676
136	0x3ca9a908	0.020710483
137	0x3ea3e9f1	0.3201442
138	0xbe162d85	-0.14665802
139	0x3d562213	0.05227859
140	0xbe98ebb8	-0.2986734
141	0xbe3c1dd0	-0.18370748
142	0xbe5b0377	-0.2138804
143	0xbec1453b	-0.3774813
144	0xbd3ebb56	-0.046565376
145	0xbdd97aed	-0.10619149
146	0x3de082e6	0.10962467
147	0xbe258510	-0.1616404
148	0xbe228554	-0.15871173
149	0xbe734c4e	-0.23759577
150	0xbe2a9db1	-0.16661717
151	0xbe57c6b6	-0.21071896
152	0xbe88c75e	-0.26714605
153	0xbd91757f	-0.07102489
154	0xbe64aece	-0.22332308
155	0x3e5e82c0	0.21729565
156	0xbeb816dc	-0.3595494
157	0xbe9b9d2f	-0.3039336
158	0xbe69b8c4	-0.22824389
159	0x3eafb12b	0.34314856
160	0xbe8bcef5	-0.27306333
161	0xbe4fb6a4	-0.20284516
162	0x3e53a66e	0.20668957
163	0x3dad2d21	0.08455873
164	0xbe849bf1	-0.25900224
165	0xbe6ef602	-0.23336032
166	0x3e08d9ef	0.13364385
167	0xbec5333b	-0.38515648
168	0xbde6a5fe	-0.11262129
169	0x3e82bc96	0.25534505
170	0x3e6883ab	0.22706477
171	0xbb828827	-0.003983516
172	0x3e41d4e3	0.18928866
173	0xbe1e4496	-0.15455851
174	0xbbdda8ce	-0.006764508
175	0xbe7e1c12	-0.24815395
176	0xbdd381fd	-0.10327528
177	0xbe93c6a7	-0.28862497
178	0xbe950c44	-0.2911092
179	0xbe8fd8d6	-0.2809512
180	0xbe0778fc	-0.13229746
181	0x3ec6c53e	0.3882236
182	0x3ee34e23	0.4439555
183	0xbeda1243	-0.42592058
184	0xbea339c8	-0.3188002
185	0xbe63830d	-0.2221796
186	0xbec5fdf8	-0.38670325
187	0xbdfe26ae	-0.12409721
188	0xbe50607d	-0.20349307
189	0x3e38819b	0.1801819
190	0xbe85cb1d	-0.26131526
191	0xbe5d7dc3	-0.21630006
192	0xbc6c04f4	-0.014405478
193	0xbe7fabe6	-0.24967918
194	0xbe5b4ff5	-0.2141722
195	0xbeae6bc1	-0.34066585
196	0xbe8d7c50	-0.27633905
197	0xbe0528d8	-0.13003862
198	0xbd08cafc	-0.033396706
199	0x3ed92247	0.42408964
200	0xbd99777a	-0.074934915
201	0xbe59329c	-0.21210712
202	0xbe17e1bc	-0.14832205
203	0xbdba7188	-0.091036856
204	0xbeb21ed8	-0.34789157
205	0xbe5d175f	-0.21590947
206	0x3d94323a	0.072361425
207	0x3d406dfb	0.046979886
208	0x3ab558a0	0.0013835616
209	0xbe51f94c	-0.20505255
210	0x3e1a7048	0.15081894
211	0xbe026306	-0.12733087
212	0xbeae330c	-0.3402332
213	0xbdeebb13	-0.11656775
214	0xbe7700ee	-0.24121448
215	0x3d0adb34	0.033900455
216	0xbe7b76ae	-0.24556991
217	0xbe6c89bb	-0.23099415
218	0xbda899e5	-0.08232478
219	0xbe60ed8b	-0.21965615
220	0xbe3278b0	-0.17428851
221	0x3f2a5452	0.6653491
222	0xbe82c116	-0.25537938
223	0xbe724911	-0.23660685
224	0xbc32427d	-0.01088011
225	0xbdf747cc	-0.12074241
226	0xbeeb2136	-0.45923775
227	0xbea1da3a	-0.31611806
228	0x3da24589	0.07923419
229	0x3d88332c	0.06650385
230	0xbef35a5d	-0.4752988
231	0xbe5efc30	-0.2177589
232	0xbde21d85	-0.11040787
233	0xbe3572a6	-0.17719516
234	0xbeb9cc2e	-0.3628859
235	0xbdb8b129	-0.090181656
236	0xbe178903	-0.1479836
237	0xbec471e6	-0.38368148
238	0xbd637725	-0.055533547
239	0xbea39cef	-0.31955668
240	0xbe861cd0	-0.26193857
241	0xbea0d55e	-0.31412786
242	0xbec1a7a6	-0.37823218
243	0xbeb795fb	-0.35856614
244	0xbed87673	-0.4227787
245	0xbd0341f9	-0.03204534
246	0xbdd6b12f	-0.10483014
247	0xbc40f0da	-0.0117761735
248	0xbe2c8ed6	-0.16851363
249	0xbd14b24b	-0.036302846
250	0x3f289c6a	0.6586367
251	0x3d30e117	0.043183412
252	0xbdd3e5e6	-0.10346584
253	0x3ebcbbe6	0.36862105
254	0x3c6ddbd2	0.014517741
255	0xbe9eaeed	-0.30992833

linear2.weight f4 [3, 256]
0	0xbd2c2abf	-0.042032953
1	0xbd9cc8ad	-0.07655463
2	0x3ca1895a	0.019718815
3	0xbde7ffc8	-0.11328083
4	0x3ef271b1	0.47352365
5	0x3e12c107	0.14331447
6	0xbad38161	-0.001613658
7	0xbe3d2098	-0.18469465
8	0xbd89ba96	-0.067250416
9	0x3e86e9f3	0.26350364
10	0xbc30858f	-0.01077403
11	0xbcc21b9d	-0.023694808
12	0xbe1966d5	-0.14980634
13	0xbd53824a	-0.051637925
14	0x3e1df1e6	0.15424308
15	0x3e3f5040	0.18682957
16	0xbda1992e	-0.07890545
17	0x3e8e705b	0.27820095
18	0xbcd8e8de	-0.026478227
19	0xbc64121d	-0.013920334
20	0x3e031d28	0.12804091
21	0xbebd4e41	-0.36973765
22	0xbed78bb7	-0.4209878
23	0x3f039ebc	0.51414084
24	0x3e13c023	0.14428763
25	0xbf144b9f	-0.5792789
26	0xbec8f087	-0.39246008
27	0x3ead3160	0.33826733
28	0x3e6db8cd	0.23215027
29	0xbecd01d5	-0.4004046
30	0xbe16dfa0	-0.14733744
31	0xbe248aa8	-0.16068518
32	0xbcc085cc	-0.0235013
33	0xbdb486ef	-0.08814799
34	0x3bc45375	0.005991394
35	0x3e5e50bb	0.21710484
36	0xbe377bd7	-0.17918335
37	0xbe4d0285	-0.20020492
38	0xbe06b135	-0.13153537
39	0x3ba299d4	0.0049621854
40	0xbd582700	-0.05277157
41	0xbd06bdd7	-0.03289589
42	0xbdc248dc	-0.09486553
43	0xbed90f28	-0.42394376
44	0x3ea24d7a	0.31699735
45	0xbf2e1285	-0.6799701
46	0xbcf2ac2f	-0.02962312
47	0x3b9a1548	0.004702244
48	0xbcefbcda	-0.029264856
49	0x3e07ef2f	0.13274835
50	0xbe0f8f56	-0.14019522
51	0xbdb04ebe	-0.08608769
52	0xbf0629cc	-0.52407527
53	0x3ecb5ac6	0.39717692
54	0xbecf7852	-0.40521485
55	0x3d564ba6	0.052318238
56	0xbe024cdb	-0.1272463
57	0xbe1a0168	-0.15039599
58	0xbd88eb5a	-0.06685515
59	0x3d497513	0.049183916
60	0xbe333109	-0.17499174
61	0x3e118a81	0.14212991
62	0x3ef60297	0.4804885
63	0x3ee3e4b1	0.44510415
64	0x3c09bf4e	0.008407427
65	0xbceabd02	-0.02865458
66	0x3e84a6fd	0.25908652
67	0x3d71a37b	0.058993798
68	0xbc8d45cd	-0.017245198
69	0xbda11037	-0.07864421
70	0x3d6d3ad4	0.05791743
71	0xbdae171d	-0.08500502
72	0xbeefa846	-0.4680807
73	0xbd046621	-0.03232396
74	0x3e80b473	0.25137672
75	0x3eb7d3aa	0.35903674
76	0x3ce6f049	0.028190749
77	0xbd068075	-0.03283735
78	0xbd6528bf	-0.05594706
79	0x3d1aa1c3	0.037751924
80	0xbdf0f49e	-0.11765407
81	0x3aa5eedb	0.0012659685
82	0x3ead3159	0.33826712
83	0xbe67affd	-0.22625728
84	0x3eab3533	0.33439025
85	0x3ecf68d9	0.4050968
86	0xbd35888f	-0.044319686
87	0xbdc2f246	-0.09518866
88	0x3e8dc748	0.27691102
89	0x3ecc5d56	0.3991496
90	0xbc48ef37	-0.0122640645
91	0xbe0ac2c0	-0.13550854
92	0x3ea87cdb	0.32907757
93	0xbe024eae	-0.12725326
94	0x3ef4af5a	0.47790033
95	0xbd8556c0	-0.06510687
96	0x3e8be74f	0.27324912
97	0xbbd3cda1	-0.006463722
98	0xbdebb202	-0.11508562
99	0xbd4c3a8b	-0.04986052
100	0xbe4b94b7	-0.19880949
101	0xbdf93997	-0.121691875
102	0xbe0effc0	-0.13964748
103	0x3e91eb7b	0.2849997
104	0x3d77bc86	0.060482524
105	0x3d6dabe5	0.05802526
106	0x3d1159b7	0.03548595
107	0x3e73d215	0.23810609
108	0x3d4706bc	0.048590407
109	0x3dd53a7e	0.10411547
110	0xbe1b2277	-0.15149866
111	0xbdc82ebc	-0.09774539
112	0xbdb0cd7b	-0.08632942
113	0x3d2deb35	0.04246064
114	0xbe86f8e1	-0.26361755
115	0xbe84e551	-0.25956205
116	0x3dc49223	0.09598186
117	0x3cc90891	0.024540218
118	0x3e108d69	0.14116444
119	0x3e8998c0	0.26874352
120	0x3eaba441	0.33523753
121	0xbd91622e	-0.070988044
122	0x3df1e6ce	0.118116006
123	0x3d9859d7	0.074390106
124	0xbef65be2	-0.48116976
125	0x3c3dd908	0.011587389
126	0xbe89d8f1	-0.26923326
127	0xbd033260	-0.032030463
128	0xbd51b859	-0.0512012
129	0xbe75e5e0	-0.24013472
130	0x3e8c0dd6	0.27354306
131	0xbea9b31b	-0.3314446
132	0xbd924645	-0.07142309
133	0xbea21757	-0.31658432
134	0xbbdc0448	-0.0067143776
135	0x3e1de099	0.15417708
136	0x3de909d5	0.113788284
137	0x3e4b78f6	0.19870362
138	0x3e26f35a	0.16303769
139	0x3f09b9d5	0.5379918
140	0xbdc1b264	-0.094578534
141	0xbe94d69e	-0.2906999
142	0xbd645ac9	-0.055750642
143	0x3c9ae6e2	0.018908922
144	0x3d073a97	0.03301486
145	0xbdc8d6e3	-0.098066114
146	0x3eeef942	0.46674544
147	0xbe47cd79	-0.19511975
148	0xbe98c613	-0.2983862
149	0xbda8f21f	-0.08249306
150	0xbefc7265	-0.49306026
151	0x3d775ee3	0.060393225
152	0xbf11f5ce	-0.57015693
153	0xbd112b6b	-0.035441797
154	0xbaa58bf5	-0.0012630211
155	0x3e8386c8	0.25688767
156	0x3c4b3db2	0.012404846
157	0xbe07853b	-0.13234417
158	0xbe86d466	-0.26333922
159	0x3dcee9b5	0.1010317
160	0xbd427d30	-0.04748267
161	0xbcf8e210	-0.030381233
162	0x3f06b928	0.52626276
163	0xbdfa2109	-0.12213332
164	0xbf286cb7	-0.65790886
165	0xbea137c6	-0.31487864
166	0x3f260598	0.64852285
167	0xbcbe1972	-0.023205493
168	0x3e274d05	0.16337974
169	0x3eb72181	0.3576775
170	0x3d537907	0.051629093
171	0x3f0b98f8	0.54530287
172	0x3eb399fb	0.35078415
173	0xbabf01f1	-0.0014572722
174	0xbca89999	-0.020581054
175	0xbddeb6f0	-0.10874736
176	0xbeb00f65	-0.34386745
177	0xbdcd627c	-0.1002855
178	0xbd7cae82	-0.06168986
179	0x3d25ceab	0.040480297
180	0x3d91d6de	0.07121061
181	0x3e95a984	0.29230893
182	0x3e490036	0.19628987
183	0x3c4acaa9	0.0123774195
184	0xbdbb0119	-0.09131069
185	0x3c696be3	0.014246914
186	0xbe868e40	-0.26280403
187	0xbcd08a41	-0.02545655
188	0xbcacdd4a	-0.021101613
189	0x3ee05c84	0.43820584
190	0xbcc2074c	-0.02368512
191	0x3df11fa9	0.11773617
192	0xbdb7e425	-0.08979062
193	0xbdf53cf0	-0.119745135
194	0xbdadea33	-0.084919356
195	0xbdb76137	-0.08954089
196	0xbe55f02d	-0.20892401
197	0xbe87381e	-0.26410002
198	0xbda1935d	-0.078894354
199	0x3eb5e1a4	0.35523713
200	0xbeb492c2	-0.35268217
201	0xbcd5cce9	-0.026098685
202	0xbe73210e	-0.23743078
203	0xbe989598	-0.2980163
204	0xbc809aa7	-0.015698744
205	0xbf07c1b9	-0.5302997
206	0x3efcf5e2	0.49406344
207	0xbf132594	-0.57479215
208	0xbefdc32e	-0.49562973
209	0x3cb585d3	0.022158539
210	0x3dcd9294	0.10037723
211	0x3e48dbc8	0.1961509
212	0xbf02c188	-0.51076555
213	0xbea03084	-0.31287014
214	0xbededa77	-0.4352605
215	0xbe9f0427	-0.31057855
216	0xbda4bb65	-0.08043555
217	0xbba7f5af	-0.0051257233
218	0xbd653103	-0.055954944
219	0x3c478d73	0.01217972
220	0xbbc3c555	-0.0059744515
221	0x3ea67cba	0.32517034
222	0xbd3e5262	-0.046465285
223	0xbdc95f0b	-0.09832581
224	0xbd813020	-0.06308007
225	0xbe867d57	-0.26267502
226	0xbe363cc0	-0.17796612
227	0xbea1a77f	-0.31573102
228	0x3e69078a	0.22756782
229	0xbd09c5bc	-0.03363584
230	0x3cc0ce09	0.023535745
231	0xbe3c49a9	-0.18387474
232	0x3ee42dfe	0.4456634
233	0xbeae5731	-0.34050897
234	0xbdff30a5	-0.1246045
235	0xbdb6a3aa	-0.08917935
236	0xbe01686c	-0.1263749
237	0x3c0c69a8	0.008570112
238	0xbf0f0a96	-0.5587553
239	0xbdb087b5	-0.08619634
240	0xbdd02ec6	-0.10165171
241	0xbdbe5b07	-0.09294706
242	0xbd42946b	-0.047504824
243	0xbd297981	-0.04137564
244	0xbd27f6e2	-0.04100693
245	0xbe051cee	-0.12999317
246	0xbef2f620	-0.47453403
247	0xbea55f70	-0.32299376
248	0xbe1f12f5	-0.15534575
249	0x3eb0776f	0.3446612
250	0x3ec93565	0.3929855
251	0x3d854378	0.06507009
252	0xbda77390	-0.08176339
253	0x3ec32cf1	0.38120225
254	0x3e80f645	0.2518789
255	0x3b75a7f3	0.0037484139

linear2.bias f4 [3]
0	0x3eb102e0	0.34572506
1	0x3ce44696	0.02786569
2	0xbd10709e	-0.03526365
